models/custom_traits.model (torch_old, 21108 bytes, 6 tensors)

l1.weight f4 [15, 5]
000000 95 28 44 c0 61 c0 95 bf d0 11 ca 3f 02 dc ce 40
       -3.064977 -1.1699334 1.5786686 6.4643564
000010 b6 cf d8 bf dc 75 91 c0 af aa ab bf 60 58 18 bf
       -1.6938388 -4.545637 -1.3411463 -0.5950985
000020 29 10 0f 40 b8 bf d3 bf a3 b2 2d c0 d2 b6 07 bf
       2.2353613 -1.6542883 -2.7140281 -0.53013337
000030 fe 02 f9 bf 2e c8 2c 40 60 b5 48 3f 4f cf 30 c0
       -1.9454038 2.699718 0.78401756 -2.762653
000040 32 fb 9c 3f 46 01 e0 c0 7d f6 3f 3f a9 27 2d 3e
       1.2264159 -7.0001554 0.74985486 0.1690966
000050 0c 42 21 3f c0 85 86 c0 fb 4f 80 c0 22 da ff be
       0.62991405 -4.203827 -4.0097632 -0.4997111
000060 66 2f 36 bf fd d0 a7 bf c4 e1 9c c0 a6 a5 c4 3f
       -0.71166074 -1.3110653 -4.9025593 1.5363052
000070 a8 df c3 3e f6 85 1a bf d6 17 34 be ba 65 24 3e
       0.38256574 -0.6036066 -0.17587218 0.1605443
000080 f7 5f ac 3f f7 f4 10 40 bc 06 84 c0 b4 20 c8 be
       1.3466786 2.2649515 -4.125822 -0.3908745
000090 a9 9f 94 40 c3 67 fd c0 20 dc 19 c1 ca f2 64 be
       4.64449 -7.918916 -9.616241 -0.22358242
0000a0 37 c0 1b c0 8c 63 75 bf 3c 10 dd bf 6d 0a 93 bf
       -2.4336069 -0.9585502 -1.7270579 -1.1487557
0000b0 6b 8a c9 3e 4b 28 89 c0 5e b5 91 bc 24 fa e8 3f
       0.39363417 -4.2861686 -0.017786678 1.8201337
0000c0 25 24 19 bf 44 7e 36 be 58 25 57 3a 7a 71 e0 bf
       -0.5982078 -0.17821604 0.0008207164 -1.753463
0000d0 af 63 c5 bf 51 a2 a3 3f 2b 99 1d c0 01 5e c1 bf
       -1.5421046 1.278391 -2.4624736 -1.5106813
0000e0 fa 30 3c bf b7 88 3c 3f 87 de 4e c0 87 12 58 c0
       -0.7351223 0.7364611 -3.232332 -3.3761308
0000f0 8c f7 c6 c0 5c 7d 5c 3e 70 c7 fd 3f b1 8c 75 c0
       -6.217718 0.21532196 1.9826488 -3.8367121
000100 90 04 01 40 94 48 c1 bf 54 75 3d 40 8a 91 ce bf
       2.0159035 -1.5100274 2.9602861 -1.6138165
000110 60 0e 75 3f de bf f6 bf 1d cb fb 3f 9b 07 e2 3b
       0.9572506 -1.9277303 1.967136 0.0068978793
000120 2d 05 af 3e 9c a1 60 c0 ee af 9a bf
       0.34183636 -3.5098639 -1.208494

l1.bias f4 [15]
000000 15 0a 85 bf 48 fa e6 3f 1c c2 f5 3f 1c eb 13 40
       -1.0393702 1.804513 1.9199862 2.311225
000010 87 db 3d 40 d5 ef 15 40 80 c4 63 40 a1 05 1f 3f
       2.966524 2.3427632 3.5588684 0.62117964
000020 cf 0f 51 40 39 19 64 40 3e 6c 3a 40 fc 9d 33 40
       3.2665899 3.5640395 2.9128566 2.8065176
000030 2e 41 1c 40 7e f4 c0 3f d6 ca c6 3f
       2.4414783 1.5074613 1.5530651

l2_1.weight f4 [250, 15]
000000 59 c2 48 3f ae b5 66 3e 1f aa ab be c2 d1 6b 3f
       0.7842155 0.22530243 -0.3352823 0.9211694
000010 30 66 5a 3f 7a f3 e2 be 2f 15 58 3e de 42 df 3e
       0.85312176 -0.44326383 0.21101831 0.43605703
000020 01 1f 79 bf a9 ac 88 c0 95 b1 69 bf fc 31 a5 3e
       -0.97312933 -4.2710767 -0.91286594 0.32264698
000030 b8 2d 1a 40 75 22 d2 be e9 b5 93 bf 1b a6 de 3d
       2.4090405 -0.41041914 -1.153989 0.10871526
000040 6d c1 79 bf e3 61 fd bb 76 b2 52 3f 5b ae 80 3f
       -0.9756077 -0.0077326163 0.8230356 1.0053209
000050 e3 ae 4e 3d 69 37 a7 be 77 b3 57 3d ae 91 df bf
       0.050459754 -0.32659462 0.052661385 -1.7466333
000060 6a fa 2a bf 41 f7 31 3f de b1 0c bf 9f 71 58 3f
       -0.6678835 0.69517905 -0.54958904 0.8454837
000070 e9 17 28 3e 60 b0 7d bf 77 13 0b 3f 95 d0 b3 bd
       0.16415371 -0.9909725 0.54326576 -0.08780018
000080 7b ac 8a be d3 d2 cf 3d 34 47 38 bf 85 c1 0e bf
       -0.27084717 0.101476334 -0.7198365 -0.5576404
000090 d3 3a d2 bf 8b a4 9e bf ea 45 c8 3e 57 1a fc 3e
       -1.6424202 -1.2393965 0.3911584 0.49238846
0000a0 4e 53 18 3f a5 d3 bc 3e 49 62 08 bf 0c 0e 93 be
       0.5950211 0.36880222 -0.5327497 -0.28721654
0000b0 19 34 cf 3e a7 92 85 bf 8d ff c0 3e 87 09 bd be
       0.40469435 -1.043538 0.3769497 -0.3692133
0000c0 31 4d b3 be e9 f0 31 bf e3 75 ad be c0 b2 75 bf
       -0.3501983 -0.69508225 -0.33879003 -0.95975876
0000d0 eb 47 f2 be a6 1d 88 3f ab ad c1 3f 76 53 36 bf
       -0.47320494 1.0634048 1.5131124 -0.712211
0000e0 29 8e a0 bf 75 09 c3 be 96 d0 fd be 28 6e bf bf
       -1.2543384 -0.38093153 -0.495732 -1.4955492
0000f0 90 7b db bf 1e 36 29 40 2a cd 91 be 07 3b 48 c0
       -1.7147083 2.643928 -0.2847684 -3.1286027
000100 8b 34 0b c0 4e b7 3d bf 52 0d 70 c0 16 33 9d 3e
       -2.175082 -0.74107826 -3.750813 0.30703038
000110 74 a0 a0 3f 68 d5 42 40 47 b5 dc bf f8 e1 96 3e
       1.2548966 3.0442753 -1.7242821 0.29469275
000120 ad da 16 c0 fe 09 aa 3e e8 3a 42 bf 43 9c 59 bf
       -2.357097 0.33210748 -0.75871134 -0.8500406
000130 e0 3e 83 3e 24 ec 08 bf 30 21 08 c0 e1 24 f4 bd
       0.25633907 -0.5348532 -2.1270256 -0.119210966
000140 5d 34 5f 3f 92 89 e0 bf 8b be cd 3f 2c 82 a9 3e
       0.87189275 -1.7541983 1.6073774 0.33107126
000150 b0 06 63 3f 18 82 18 c0 ba 72 0a c0 b6 7e 1a 3e
       0.8868208 -2.3829403 -2.1632524 0.15087399
000160 c1 6d 0f 3f 54 f2 ed be de 4f 68 bf cf 96 16 be
       0.56026846 -0.46473944 -0.9074687 -0.14705966
000170 02 13 21 bf f7 bb 8c bd c9 12 4b 3f 94 5d 29 3e
       -0.6291963 -0.06871789 0.7932554 0.16539603
000180 2e 69 2e bd ee 19 48 3f 7d 4c 04 bd ca 8b 7c 3f
       -0.042580776 0.78164566 -0.032299507 0.986508
000190 91 a9 b0 bf f3 f3 94 bf 26 b4 1a be 86 d8 af be
       -1.3801748 -1.1636947 -0.15107784 -0.34344882
0001a0 59 4e a2 bf 75 13 48 3f a7 5c f8 bd e2 0d a1 bf
       -1.268016 0.7815469 -0.12127047 -1.2582362
0001b0 e3 95 c6 3e 22 58 0e bf 10 0a 26 bf 9b 08 5c bf
       0.3878623 -0.5560323 -0.64859104 -0.8595063
0001c0 1b e9 76 bf 7f 07 8c 3f c2 ad a8 bc a6 7b 37 bf
       -0.9644944 1.0939788 -0.020590667 -0.7167305
0001d0 7a 6a af 3f a6 d5 c9 bf 8c 6b de be 67 f7 0a bd
       1.3704369 -1.5768325 -0.43441427 -0.033927348
0001e0 62 03 d8 be 04 ff 69 bf a5 d1 a5 be 47 95 e4 3e
       -0.4219008 -0.9140475 -0.3238651 0.4464514
0001f0 0d 29 4d be 38 46 93 bf 38 63 74 be 98 65 97 bd
       -0.20035191 -1.1505804 -0.23865974 -0.07392424
000200 ec 07 d2 bf 91 6b 86 be 84 0d a5 3f f4 45 25 3f
       -1.6408668 -0.26253942 1.289475 0.64559865
000210 74 09 f2 be 9c dc 0e bf ce 3f 93 bf ec ea 9b 3e
       -0.47272837 -0.55805373 -1.1503847 0.3045267
000220 a9 e6 43 3f 56 ca 66 be 2e 52 8b be 7c 85 35 c0
       0.76523834 -0.22538123 -0.27211136 -2.8362722
000230 2d 4e 0f c0 10 31 e8 be 9e 0b 0f c0 d8 92 36 bf
       -2.2391465 -0.45349932 -2.235084 -0.71317816
000240 9e be 94 c0 1b 9f dd 3f c1 90 68 3f 2c 1d 31 40
       -4.6482687 1.731418 0.90845877 2.7674055
000250 00 ef 98 bf 12 1e 27 bf 15 73 4c bf 21 21 18 40
       -1.1947937 -0.6528026 -0.798631 2.377022
000260 e2 93 00 3f 67 9b 9a bf df 9f 57 be 66 df 87 be
       0.5022565 -1.2078675 -0.2105708 -0.26537627
000270 d7 70 8f 3f 52 44 45 40 92 94 03 c0 17 d0 dc c0
       1.1206311 3.082295 -2.055943 -6.9004016
000280 bc 07 58 c0 fc 8f 13 3f 71 2e 79 40 d3 38 51 3e
       -3.375472 0.5764158 3.8934596 0.20431833
000290 e1 5c fb bf 6e b5 2c bf a3 b1 91 bf 95 2f cc 3e
       -1.9637719 -0.6746434 -1.1382335 0.39880052
0002a0 10 f7 c7 be 69 60 14 bf e8 17 3f bf 01 50 ad 3d
       -0.3905568 -0.5795961 -0.74645853 0.08462525
0002b0 29 b8 a2 3f 7c a2 f8 bf e5 c0 ab bf 5c ca 10 3e
       1.2712451 -1.9424586 -1.3418242 0.14139694
0002c0 56 e7 0c 3f 72 eb a2 bf 5a 8b 1f be 58 4d af bf
       0.5504049 -1.2728102 -0.15580502 -1.3695478
0002d0 70 ba 5e 3f 5f 32 e3 be 52 0e a2 bf 11 e0 ff 3e
       0.8700323 -0.44374368 -1.266062 0.49975637
0002e0 31 8b 7b bf cd 65 87 bf 03 ab c8 bf 67 ee df bf
       -0.98259264 -1.0577942 -1.5677189 -1.749463
0002f0 52 2c 87 bd 89 3a 8a bd d0 4b ad 3f ae 89 7d 3f
       -0.0660025 -0.06749446 1.3538761 0.9903821
000300 0d 52 c8 bf 1e 5b 9a be 0e 49 18 3e 84 10 76 bf
       -1.565004 -0.30147642 0.14871618 -0.9611895
000310 c9 53 f3 bd 22 9d 17 bf 6a a1 00 3f f9 90 63 3f
       -0.11881215 -0.5922414 0.502463 0.88893086
000320 79 61 c3 be 8c c9 5c bf b4 80 33 bf 0b e8 d5 3d
       -0.38160303 -0.86245036 -0.7011826 0.10444649
000330 1f 97 85 3f d6 3c 8b 3e da 12 9c be 0c 69 61 bf
       1.0436743 0.27194852 -0.30483133 -0.88050914
000340 f1 d5 fc be 64 ca ab bf 68 75 cc bc 1b e7 ec 3e
       -0.49381974 -1.342114 -0.024958327 0.4627007
000350 e6 25 ba bf f8 0f 03 be e2 fe 35 be 63 dd 03 3f
       -1.4542816 -0.1279906 -0.17773011 0.51509684
000360 05 6f 29 c0 09 13 69 c0 56 49 14 40 15 b5 fc bc
       -2.647401 -3.6417868 2.316976 -0.030848065
000370 eb 9f 47 bf 79 d5 0d c0 71 f0 91 3c d7 f9 d6 3e
       -0.7797839 -2.2161543 0.017814847 0.41987488
000380 aa 08 4f bd ab 34 bf bf 6e af 1b 3e 06 16 5f be
       -0.050545372 -1.4937948 0.1520364 -0.21785745
000390 f9 1c 16 c0 c5 b5 e2 3e 55 91 8f 3e 89 1b 5e c0
       -2.3455184 0.44279304 0.28040567 -3.4704306
0003a0 1e dd be 3f a8 15 55 bf 93 94 92 3f 5b 8a c4 3d
       1.491123 -0.8323617 1.1451591 0.09596702
0003b0 b4 5c 37 c0 8f 7b 06 be d7 bd ce 3f 89 6d 3a bf
       -2.8650331 -0.13133071 1.6151685 -0.7282339
0003c0 fa 1e da bf d2 34 86 3e 0c 55 c1 bc 2e a6 b1 be
       -1.7040703 0.26212174 -0.023600124 -0.34697098
0003d0 d1 8d 6a 3f aa 15 16 bd a1 2b 09 bf 29 e8 27 3f
       0.91622645 -0.036641754 -0.535822 0.65588623
0003e0 4d 31 a2 3e 31 0b 80 3f 11 ce b2 bf 8f 42 c2 be
       0.3167824 1.0003415 -1.3969136 -0.37941405
0003f0 f0 e0 5e bf f0 b0 9b bd e7 86 f9 bf 3c 7e 24 3f
       -0.8706198 -0.076021075 -1.9494294 0.6425512

l2_1.bias f4 [250]
000000 4e 03 e5 3f c8 b2 8c c0 f9 95 4a c0 d1 58 71 c0
       1.7891634 -4.396824 -3.1654036 -3.771046
000010 07 56 92 3f e4 05 63 bf 71 1d 9d c0 61 6d 18 c0
       1.1432503 -0.88680863 -4.909844 -2.381676
000020 35 a4 55 c0 62 f4 37 40 7c 93 6f 40 54 ae 14 c0
       -3.3381474 2.874291 3.7433767 -2.3231401
000030 ba 11 f4 bf e6 97 8e c0 10 e7 4a bf 0f be 87 3e
       -1.906791 -4.4560423 -0.79258823 0.2651219
000040 46 60 8a c0 67 1d 1c c0 86 87 1d c0 e2 54 77 40
       -4.324252 -2.4392946 -2.4613967 3.8645558
000050 d0 6d 60 40 9a 37 6b c0 39 3c 2d c0 bd 56 4a c0
       3.5067024 -3.6752687 -2.7068007 -3.161544
000060 0f 6c 5d bf 3a 99 86 3e 9f b1 71 c0 df 47 bb bf
       -0.8649301 0.26288778 -3.7764661 -1.4631308
000070 64 e4 15 c0 c2 e2 39 40 26 e5 bd 3f 5b 32 a8 c0
       -2.3420649 2.9044652 1.4835556 -5.256147
000080 c2 e1 59 c0 b8 25 9e c0 56 85 03 40 8c ff 97 3f
       -3.4044042 -4.9421043 2.0550132 1.1874862
000090 94 ff cf c0 b0 d0 54 c0 99 dd a4 c0 40 eb 49 40
       -6.4999485 -3.3252373 -5.1520505 3.1549835
0000a0 4e 2e 2e 40 e9 be 74 c0 10 71 5a c0 cc fb 91 c0
       2.7215762 -3.8241522 -3.4131508 -4.561987
0000b0 bb 49 5f bf fc 18 cd bf 09 a3 06 c1 21 63 a8 c0
       -0.8722188 -1.602325 -8.4148035 -5.2621007
0000c0 26 6d bd c0 42 3d 51 40 36 0d 78 3e e5 09 90 c0
       -5.919574 3.2693639 0.2422379 -4.501208
0000d0 e4 56 97 c0 14 08 8f c0 95 64 8d 40 f3 9f 85 40
       -4.729357 -4.469736 4.418528 4.175775
0000e0 a8 ad 83 c0 49 7b 8b c0 79 f2 92 c0 70 64 01 3f
       -4.1149483 -4.3587995 -4.5920987 0.5054388
0000f0 7b 32 ff 3f 2b fd 94 c0 b8 3c 38 c0 71 97 97 c0
       1.993728 -4.6559043 -2.878706 -4.7372365
000100 72 e4 8b 40 ce 53 71 40 4f 21 a9 c0 d7 43 70 c0
       4.3716364 3.77074 -5.285316 -3.7541406
000110 b8 03 be c0 a8 f5 30 40 b9 2f a3 3f 71 0f b2 c0
       -5.937954 2.7649937 1.2748939 -5.564385
000120 4d 28 8b c0 66 7f a6 c0 bc b7 95 40 ce 14 ca bf
       -4.3486695 -5.2030516 4.6786785 -1.5787599
000130 32 db 82 c0 5e c7 66 c0 44 a1 7e c0 dc 7c 94 40
       -4.0892572 -3.6059184 -3.9785929 4.6402416
000140 3f 20 6b bf f2 10 a0 c0 80 65 57 c0 55 07 a0 c0
       -0.9184608 -5.0020685 -3.36557 -5.000895
000150 5f 66 6e 40 f3 36 98 bf 29 ac 95 c0 d3 0e 57 c0
       3.7249982 -1.1891769 -4.6772656 -3.3602798
000160 c4 c7 66 c0 24 94 6d 40 21 33 56 3f a0 bf 88 c0
       -3.6059427 3.7121668 0.83671767 -4.2733917
000170 61 3e 84 c0 4a a1 98 c0 b2 c8 a2 40 a4 ba 9b bf
       -4.1326146 -4.7696886 5.086999 -1.2166333
000180 91 90 9d c0 2e d7 4c c0 9b d6 5b c0 88 b8 8e 40
       -4.9238973 -3.2006335 -3.4349735 4.460026
000190 4b e8 b4 3f c1 e6 4f c0 4b 9f 61 c0 ce 84 89 c0
       1.413339 -3.248459 -3.5253475 -4.2974615
0001a0 0e 65 27 3f 44 02 75 40 53 ab 67 c0 1f eb 29 c0
       0.6538857 3.8282633 -3.6198318 -2.6549757
0001b0 12 35 63 c0 0b e8 a1 3f 32 6b 8b be b9 d9 b8 c0
       -3.5501142 1.2648939 -0.2723022 -5.7765775
0001c0 d8 54 69 c0 86 ef 00 c0 70 ee 14 40 81 c9 2f 40
       -3.6458035 -2.0146194 2.327053 2.7466738
0001d0 ef 16 1c c0 33 a8 64 c0 e3 da 82 c0 de da d3 3e
       -2.4388998 -3.572766 -4.0892196 0.4137792
0001e0 3d 32 b4 3f c0 3e 8a c0 e8 43 52 c0 cb 5f 6b c0
       1.4077832 -4.32016 -3.2853947 -3.6777217
0001f0 99 e8 87 40 d5 b6 1c 40 9b 02 a0 c0 be 8a 8b c0
       4.2471433 2.4486592 -5.000318 -4.3606863
000200 fe 81 94 c0 93 fc eb 3f 52 cc 13 3f 32 88 5d c0
       -4.640868 1.8436455 0.57733643 -3.4614377
000210 12 6f 33 c0 09 9e 7b c0 50 08 8a 40 00 68 70 40
       -2.8036542 -3.9315207 4.3135147 3.7563477
000220 71 52 4f c0 ba 7c 2d c0 77 ea 44 c0 38 77 fa 3f
       -3.2394068 -2.7107377 -3.0768106 1.9567633
000230 c6 ec 91 40 f6 b0 27 c0 36 70 5e c0 d1 8d 7e c0
       4.560153 -2.6201758 -3.4755988 -3.9774058
000240 28 50 c9 3f 7a 07 73 40 c2 74 9b c0 02 b1 f9 bf
       1.5727587 3.7973313 -4.8580027 -1.9507143
000250 50 e0 59 c0 da 5f 72 3f fa e3 89 40 a4 6f 52 c0
       -3.404316 0.9467751 4.309079 -3.288064
000260 a9 94 64 c0 a6 bc 40 c0 9e 9b fe 3f 3c 96 45 3f
       -3.5715735 -3.0115142 1.9891241 0.77182364
000270 f6 01 99 c0 27 76 87 c0 15 89 9c c0 e3 05 0a 40
       -4.7814894 -4.233173 -4.8917336 2.1566093
000280 1e 05 92 3c 4d b3 89 c0 5c ee 8c c0 b5 48 86 c0
       0.017824706 -4.3031373 -4.4040966 -4.1963754
000290 15 1c 15 40 52 dd 13 bf 06 d0 7c c0 30 c7 00 c0
       2.329839 -0.57759583 -3.9501967 -2.0121574
0002a0 6a 4b 58 c0 22 30 73 40 25 f7 0c 40 c1 06 91 c0
       -3.379603 3.7998128 2.2025845 -4.5320745
0002b0 b4 55 84 c0 33 fa 6b c0 3e 53 04 40 c5 64 b0 3f
       -4.135462 -3.687146 2.0675807 1.3780752
0002c0 ee 8a 90 c0 18 46 70 c0 62 8e b9 c0 5a 14 22 40
       -4.516959 -3.7542782 -5.7986307 2.5324922
0002d0 87 e8 51 40 29 af 8e c0 2c 1f 5a c0 61 3f 8c c0
       3.2798173 -4.458882 -3.4081526 -4.3827367
0002e0 7c 7f 41 40 55 94 96 3f 36 b3 84 c0 aa c6 23 c0
       3.023406 1.1764017 -4.1468763 -2.5590005
0002f0 62 c2 62 c0 d9 5b 83 40 61 91 ef 3f ea aa 71 c0
       -3.5431142 4.104962 1.8716241 -3.7760568
000300 73 84 83 c0 1b 54 85 c0 2d bb 67 40 58 80 81 40
       -4.109918 -4.166517 3.6207993 4.046917
000310 b9 d6 70 c0 47 28 1c c0 2d 97 2a c0 f2 a5 3f 40
       -3.7631056 -2.4399583 -2.665477 2.9945035
000320 10 3d 07 be 6e 28 4b c0 89 76 50 c0 85 f3 4a c0
       -0.13206887 -3.1743426 -3.2572348 -3.1711133
000330 5f fe 29 40 75 e5 1c 40 7e 53 76 c0 ff eb b7 c0
       2.6561506 2.451505 -3.848846 -5.747558
000340 c1 21 6f c0 24 d4 1e 40 b2 ee a1 3e d1 8d b7 c0
       -3.7364352 2.481698 0.31627423 -5.7360616
000350 52 b4 03 c1 56 af fb c0 87 70 9b 3f 50 2b e5 3f
       -8.2315235 -7.8651533 1.2143716 1.7903843
000360 21 27 a7 c0 d1 40 d5 c0 01 18 6a c0 f7 55 8a 40
       -5.2235265 -6.664162 -3.657715 4.3229938
000370 50 56 2e 3f d0 0d 3f c0 29 21 22 c0 31 65 91 c0
       0.6810045 -2.985218 -2.533274 -4.5436025
000380 58 df 15 40 99 da ab 3f 5d 47 ca c0 73 95 e2 c0
       2.3417568 1.3426086 -6.3212113 -7.0807433
000390 a6 1a ab c0 f9 5a 26 c0 d1 11 9d 3c d7 57 06 c0
       -5.347003 -2.5993025 0.019173535 -2.0991113
0003a0 46 be 6b c0 7c 40 81 c0 5b c1 ed 3f 16 17 d8 3f
       -3.6834884 -4.0391216 1.8574632 1.6882045
0003b0 5f 77 9f c0 b9 1c 86 c0 d4 fe 45 c0 90 3d 49 40
       -4.9833217 -4.191006 -3.0936785 3.1443825
0003c0 9f cf 85 3e a0 26 a1 c0 27 f1 bf c0 67 92 ef c0
       0.26134965 -5.035965 -5.9981875 -7.4866214
0003d0 e2 06 bc 3f 12 9b dd 3f 2c af 89 c0 c7 75 5b c0
       1.46896 1.7312949 -4.3026333 -3.4290636
0003e0 d8 0d 5c c0 48 ac 9f 3f
       -3.438345 1.2474451

l2_2.weight f4 [58, 15]
000000 51 3e 24 be 96 1f 1e 3e 7e 97 58 be c0 fc af bd
       -0.16039397 0.15441737 -0.2115154 -0.0859313
000010 00 68 fb ba d7 0b 5a be 38 ce 4f 3e 40 cb 43 bc
       -0.0019180775 -0.21293579 0.2029351 -0.011950314
000020 4a 82 20 be c8 79 58 bd 58 3c 28 3d 20 55 0d 3e
       -0.15674701 -0.052850515 0.041073173 0.13802004
000030 d4 be 86 3d b2 fe e2 bd 50 50 a4 bd 84 f3 eb bd
       0.06579366 -0.110837355 -0.08023131 -0.11521056
000040 42 04 29 3e a0 15 cb 3c c2 b4 27 3e 70 a7 65 bd
       0.1650553 0.024790585 0.16377547 -0.056067884
000050 98 6a e5 3d 00 7c 1a 3a ee a3 1b be 6a c8 70 3e
       0.11201972 0.0005893111 -0.15199253 0.23513952
000060 98 91 3e 3e 90 c5 d0 3d 2a 46 51 3e 1c b1 63 be
       0.18610227 0.10193932 0.20436922 -0.2223553
000070 4c aa 4e 3e 48 35 6b 3d 6a 3a cb bd 04 cf 05 bd
       0.2018215 0.05742386 -0.09923251 -0.03266813
000080 82 26 27 3e 20 c1 11 3d b8 a5 7d be 16 e2 1c 3e
       0.16323283 0.03558457 -0.24770248 0.1532062
000090 72 2b 23 3e 7e ad ef bd 36 e8 20 be 00 a2 d3 ba
       0.15934542 -0.11703013 -0.15713581 -0.0016146302
0000a0 60 cc 14 be 32 6e 2a 3e 6a fc d2 bd 5c 40 6d 3e
       -0.14531088 0.16643599 -0.103020504 0.23169082
0000b0 3a 5b 26 be b0 2a 56 3d 30 b9 95 bc 00 fe 7f 3d
       -0.16245738 0.052286804 -0.01827678 0.062498093
0000c0 98 1f 08 3d c0 99 93 bb aa 2d 63 3e d8 b8 7b 3d
       0.033233255 -0.0045044124 0.22185388 0.061455578
0000d0 a2 f3 59 3e 20 b6 7d be d6 c8 51 3e 00 14 5e ba
       0.21284345 -0.24776506 0.20486769 -0.0008471608
0000e0 60 15 80 be e2 43 fc bd 18 c6 40 be 5a 97 70 be
       -0.25016308 -0.12317635 -0.18825567 -0.23495236
0000f0 fd b7 6a be ae 03 c8 bd e6 09 c9 bd 98 3b 13 be
       -0.22921748 -0.09766327 -0.09816341 -0.14378202
000100 ea ac 56 3e 8c 5f 10 be ec d2 36 be 1a 03 32 be
       0.20964399 -0.14098948 -0.17853898 -0.17383996
000110 a0 85 87 3d ee d5 37 3e 3a 5e 21 3e 0e b8 25 3e
       0.06617284 0.17952701 0.15758601 0.16183493
000120 a0 50 67 be 1a 07 f2 bd 98 69 2f be c8 06 43 3d
       -0.2258935 -0.11817761 -0.17130125 0.04761389
000130 0e 08 07 be 18 d7 47 3d 40 5f 26 3e d0 e4 16 3e
       -0.13186666 0.048789114 0.16247272 0.14735723
000140 86 83 12 3e 30 02 aa 3c 5f 54 5e be e8 d5 0e 3e
       0.14307985 0.020752996 -0.21711873 0.13948786
000150 66 5d 21 be 40 a7 a3 3c 20 dd 10 bc 3d d1 07 be
       -0.15758285 0.019977212 -0.008841783 -0.13263412
000160 80 c2 35 bd ec 20 70 3e 46 0a 3f be ce 18 16 3e
       -0.044374943 0.23450059 -0.18656263 0.146579
000170 ce 45 6f 3e 72 50 57 be 5e 78 1d 3e c4 3a 50 3e
       0.23366472 -0.21026781 0.15377948 0.20334917
000180 8d a5 77 be 20 67 36 be b2 f2 7b 3e 8e 89 9e bd
       -0.24184246 -0.17812777 0.246043 -0.0774108
000190 68 a5 0b bd 4a ea 36 3e a0 7e c1 3c 00 10 c6 b8
       -0.03409329 0.17862812 0.02361995 -9.444356e-05
0001a0 26 1d 24 be b0 a4 29 3d 22 1e 04 be a0 b7 4b be
       -0.16026744 0.041416824 -0.1290212 -0.19894266
0001b0 c8 86 73 3d c0 5d d1 bb 84 19 a9 bd a8 07 02 3d
       0.05945471 -0.0063893497 -0.0825682 0.031745583
0001c0 e4 8b 2c bd 5c 16 7c bd d4 7a c7 3d d8 1a ac 3d
       -0.042125598 -0.06154476 0.097402245 0.084035575
0001d0 ce 79 6a be 24 7a 3e 3e 08 f1 ba bc 18 e9 98 3d
       -0.22898027 0.1860128 -0.02282001 0.07466334
0001e0 4a e4 28 be 9e 65 c0 bd a0 1d 5e 3c 72 f0 a8 bd
       -0.16493335 -0.09394382 0.013556868 -0.08248986
0001f0 58 1d 58 bd 5f b0 6e be 00 f4 4c ba 30 a3 ae bd
       -0.05276236 -0.23309468 -0.0007818341 -0.08527219
000200 c0 b7 80 bb f8 eb 19 be 12 86 20 be e0 8e 63 3d
       -0.0039281547 -0.15031421 -0.15676144 0.055556178
000210 f5 18 05 be 88 8f 0d bd 60 0f 77 3d 70 a5 8c bc
       -0.12997802 -0.03456071 0.060317397 -0.01716873
000220 9c bb 3d 3e 14 55 a4 3d b0 3d 4e 3e 98 cc 36 3e
       0.18528599 0.0802404 0.2014072 0.17851484
000230 8c 13 d5 3d 00 a8 b5 b9 30 6b 93 bc ce a1 3a 3e
       0.10404119 -0.0003464818 -0.017995447 0.18225786
000240 fa a8 53 3e 00 fc 97 b9 a2 9a 28 be c3 b4 0e be
       0.20669928 -0.0002898872 -0.16465238 -0.13936143
000250 70 63 76 3d 40 6a 79 bc 58 57 4b 3e 0a a6 67 be
       0.060153425 -0.015223086 0.19857538 -0.22621933
000260 1c 2e be 3d 02 35 b7 bd 84 55 4b be bc 63 ec 3d
       0.092861384 -0.08945657 -0.1985684 0.1154246
000270 0c fe a5 3d 50 e3 24 be 4b a1 12 be 22 4c 58 3e
       0.08105096 -0.16102338 -0.14319341 0.21122792
000280 18 b8 91 3d 40 e4 86 bb 08 22 5b 3e 48 39 fb 3d
       0.07115191 -0.004116565 0.213997 0.12266785
000290 28 27 40 be 39 aa 6c be 34 39 53 be ed c3 4e be
       -0.18764937 -0.2311181 -0.2062729 -0.20191927
0002a0 58 54 d5 3d e8 5b 1d 3d f4 54 ba 3d 52 44 17 be
       0.10416478 0.038417727 0.09098235 -0.14772156
0002b0 2c 87 e6 3d 6d 0e 3c be 80 ba d0 3c 5c 55 8f 3d
       0.11256251 -0.18364878 0.025479555 0.06998703
0002c0 34 ec 8e bd ea b8 1d 3e ac 64 02 be 39 e0 52 be
       -0.06978646 0.1540257 -0.12733716 -0.20593347
0002d0 40 1a 89 bb 71 20 82 3e 0e cc 02 3e d0 bb 51 3e
       -0.0041840374 0.25415376 0.12773153 0.20481801
0002e0 50 cf e3 3c fc 48 a9 3d 43 05 81 3e 08 85 6b 3d
       0.027808815 0.08265874 0.25199327 0.057499915
0002f0 52 0a 17 3e 60 76 d2 bd ad 4c 80 3e 92 b1 8c bd
       0.1475003 -0.102764845 0.250585 -0.06869806
000300 3d fb 43 be 60 d4 f2 3c 32 6a 75 3e 96 09 5d 3e
       -0.19138809 0.029642284 0.23966292 0.21585688
000310 30 7a f8 3d ae f9 5f be 98 cd e6 3d b1 27 61 be
       0.121326804 -0.21872589 0.11269683 -0.21987797
000320 4c c0 67 bd f1 42 47 be 60 96 a1 3c 1c fa 7d be
       -0.056579873 -0.1945913 0.019725025 -0.2480244
000330 d0 0a d7 3d d2 dd 3d be 08 cf b8 3d 08 b3 fb 3d
       0.10500109 -0.18541649 0.09023863 0.12290007
000340 34 21 16 be 04 5e 63 3e 10 b0 33 3d 60 b5 b7 3d
       -0.14661103 0.22203833 0.04386908 0.089701414
000350 50 6f bd 3c 40 eb 36 3c fe 84 c5 bd 78 2e 26 3e
       0.023124367 0.011164486 -0.09644507 0.16228664
000360 44 07 24 3e 18 b1 ad bd ee 7c 42 be f0 04 86 3c
       0.16018397 -0.084810436 -0.1899297 0.016359776
000370 69 fa 3c be 80 6b 7a bb 60 7e 11 bc 8a 14 08 be
       -0.18454899 -0.0038211048 -0.008880228 -0.13289085
000380 70 49 35 3d f8 3d 0c 3d fe 87 19 be 38 36 4f be
       0.04425949 0.034238786 -0.14993283 -0.20235527
000390 62 de 2f 3e 88 b7 db bd d0 8d 51 be 7e 16 5b 3e
       0.17174676 -0.10728365 -0.20464253 0.21395299
0003a0 10 fb ee 3c 90 62 7f bc 0a 24 70 3e 40 3b d7 3b
       0.02917245 -0.015587464 0.23451248 0.0065683424
0003b0 60 2e 70 3c f6 83 46 3e 0c 57 db bd 82 bc bb bd
       0.014659494 0.19386277 -0.10709962 -0.091668144
0003c0 d8 cf 34 3e 4c 7b 70 bd ee be 28 3e 15 a6 71 be
       0.17657411 -0.058711335 0.16479084 -0.23598512
0003d0 46 e1 1e 3e 3e 1d 69 be 48 df d6 3d d2 ec 70 3e
       0.15515622 -0.22765061 0.10491806 0.2352784
0003e0 fc 90 9f bd ac d6 46 3e ed f0 81 be 26 52 9c bd
       -0.077913254 0.19417828 -0.25379124 -0.07632856
0003f0 e0 8d 4d 3c b4 b3 8c 3d 76 57 15 3e 9a 0c 15 be
       0.012546033 0.06870213 0.14584145 -0.14555588

l2_2.bias f4 [58]
000000 54 c0 77 be d5 97 49 be a0 0a 2d be a0 52 14 bd
       -0.24194461 -0.19686826 -0.16898584 -0.03621161
000010 58 e8 13 bd b2 e2 c8 bd 76 65 d5 bd cc 41 f5 3d
       -0.036110252 -0.09808864 -0.10419743 0.119754404
000020 0f 68 80 3e 20 9c 40 bc e0 80 10 3c 0d f0 83 be
       0.2507939 -0.011755973 0.008819789 -0.25769082
000030 aa 5c 3b be e6 f5 cb bd 9c d4 b6 3d 04 c8 93 3d
       -0.18297067 -0.09959011 0.08927271 0.07215884
000040 4e 02 4f 3e 10 98 3a 3d fc 88 f8 bd b8 5f 14 3e
       0.20215723 0.045555174 -0.12135503 0.14489639
000050 f0 0a ff 3d 34 b1 9a 3d b4 8c c0 bd f0 d6 83 bd
       0.12453258 0.0755333 -0.09401837 -0.064374804
000060 00 d3 81 ba a8 49 3f 3e d2 f8 7a 3e 20 d7 18 3e
       -0.0009904802 0.18680441 0.2450898 0.14925814
000070 ca d3 5d 3e 64 ce 8e 3d 08 be f6 bc b4 5b 28 be
       0.21662822 0.0697296 -0.03011991 -0.16441232
000080 50 77 b7 3d 28 1e 8c 3d 3e 73 21 be 70 b8 5d 3d
       0.08958304 0.06841689 -0.15766618 0.05413097
000090 d5 28 71 be d6 92 0f be a0 ce 86 3d 30 08 62 be
       -0.23550732 -0.14020857 0.06582379 -0.22073436
0000a0 88 fb a9 bd 70 6b 60 3d 2e 93 2f 3e 38 d3 e2 bd
       -0.08299929 0.05478996 0.17145988 -0.11075443
0000b0 cc 11 d6 3d 90 45 db 3d 40 32 39 3e 90 96 7f bd
       0.10452613 0.10706627 0.18085575 -0.062399447
0000c0 30 27 4d 3e 0c 9e f1 bd de 55 3c 3e 8e b3 48 3e
       0.2003448 -0.11797723 0.1839213 0.19599745
0000d0 a2 0b db bd 7c af d7 3d 80 ab fc 3b f0 ab 2a be
       -0.10695578 0.10531518 0.007710874 -0.16667151
0000e0 f4 80 49 3e 56 43 ee bd
       0.19678098 -0.11633937
